data/trained_model/nerf/lego/img_fit/latest.pth (torch, 676675 bytes, 30 tensors)

backbone_layer.0.weight f4 [128, 42]
0	0x3e10bd7d	0.14134784
1	0xbe2bf535	-0.16792758
2	0xbd9e422b	-0.07727464
3	0x3dc9a003	0.09844973
4	0x3c302970	0.010752067
5	0x3df7295b	0.12068435
6	0x3bcc9f4a	0.0062445747
7	0xbcb32fb6	-0.021873336
8	0x3d17e50f	0.03708368
9	0x3e161db5	0.1465977
10	0xbe31fd97	-0.17381893
11	0xbde4fbd7	-0.11180847
12	0xbcfe71f6	-0.0310602
13	0x3e75cac4	0.2400313
14	0x3e49959e	0.1968598
15	0x3d380c55	0.044933636
16	0xbdda2252	-0.10651077
17	0x3d2023cb	0.039096635
18	0xbd1f4769	-0.03888646
19	0x3e2857ea	0.16439787
20	0x3da3f913	0.080064915
21	0xbcaca2bc	-0.021073692
22	0xbe027297	-0.12739025
23	0x3e279ff7	0.16369615
24	0xbd4d0ae4	-0.050059214
25	0xbb363c0e	-0.0027806791
26	0xbdf4cc8a	-0.11953075
27	0x3e2b3d68	0.16722643
28	0x3da076d9	0.078351684
29	0xbc8113bd	-0.015756482
30	0x3db72ce3	0.08944108
31	0x3e04eb5c	0.12980407
32	0x3dec2e29	0.11532242
33	0x3cc67326	0.024224829
34	0xbe274ae7	-0.16337167
35	0x3ca98460	0.020693004
36	0x3c8cf091	0.017204555
37	0x3dcd6fe3	0.10031106
38	0xbdd97ffa	-0.10620113
39	0xbabbb4cc	-0.001432085
40	0x3c54f2df	0.012997358
41	0x3c9d9978	0.019238219
42	0x3dd85a5a	0.10564108
43	0xbdca368a	-0.09873684
44	0xbe2bc584	-0.16774565
45	0xbd23b4b5	-0.039967258
46	0xbd94a47d	-0.07257936
47	0xbd08999f	-0.03334963
48	0x3d7b2e13	0.061323237
49	0xbd938805	-0.07203678
50	0x3a4b770c	0.0007761575
51	0xbbafdf0f	-0.005367167
52	0x3d07caa6	0.033152245
53	0x3d226086	0.039642833
54	0xbb803582	-0.0039126286
55	0xbe18483a	-0.14871302
56	0x3e379510	0.17927957
57	0x3dec2a61	0.11531521
58	0x3d339a55	0.043848354
59	0xbd82199b	-0.0635254
60	0x3d7764d4	0.06039889
61	0xbc73b300	-0.01487422
62	0x3e0d0881	0.13772775
63	0xbe90b5f2	-0.28263813
64	0xbdb9faa6	-0.090810105
65	0x3e0ee9ab	0.13956325
66	0x3e15c49c	0.14625782
67	0x3d683b0e	0.056696944
68	0xbda0e638	-0.07856411
69	0xbe29ab8a	-0.16569343
70	0x3d0d55ec	0.03450577
71	0xbdcb15fc	-0.099163026
72	0x3db5f0b4	0.08883801
73	0xbe0e41d7	-0.13892303
74	0xbcd6294f	-0.026142744
75	0xbc6dfc62	-0.014525505
76	0x3e1897c7	0.14901648
77	0x3c59f4ba	0.013302976
78	0xbe48c519	-0.19606437
79	0xbdbeaa9b	-0.09309884
80	0xbdc13721	-0.09434343
81	0x3c97cecc	0.018531226
82	0xbe085dbb	-0.13317005
83	0x3cdf46ef	0.027255503
84	0x3da0295c	0.07820389
85	0x3dc40b4c	0.09572467
86	0x3d983791	0.074324735
87	0xbc231c1a	-0.00995543
88	0xbcfa14dd	-0.030527527
89	0xbd951c4f	-0.0728079
90	0x3e139ec7	0.14416037
91	0x3d1c6f1b	0.038191896
92	0xbd63f1dd	-0.05565058
93	0xbbc857a5	-0.0061139637
94	0x3d97651d	0.07392333
95	0x3d741a10	0.059595168
96	0x3d90fbc4	0.070792705
97	0xbd7ce55e	-0.06174218
98	0x3d561620	0.052267194
99	0x3e4c98eb	0.19980209
100	0xbd9b4840	-0.0758214
101	0x3d3b39d3	0.045709442
102	0xbcfb087b	-0.030643692
103	0x3e1e60b5	0.15466578
104	0xbd7d1325	-0.061785836
105	0xbe49d479	-0.19709958
106	0x3caf8188	0.02142407
107	0x3e71a365	0.23597486
108	0x3dd7a6dc	0.10529873
109	0x3df5f480	0.12009525
110	0x3dc8c0ce	0.098023996
111	0x3d40947f	0.047016617
112	0xbabaefec	-0.0014262176
113	0xbd20fbd8	-0.039302677
114	0xbc3b53e5	-0.011433576
115	0xbc323c2e	-0.010878606
116	0xbdb9f2ad	-0.0907949
117	0xbd8bd2fd	-0.06827352
118	0xbd46c609	-0.048528705
119	0xbce3e392	-0.027818475
120	0xbd64a2c6	-0.055819295
121	0x3e413d61	0.1887107
122	0xbce743e5	-0.028230617
123	0x3d34174b	0.043967526
124	0x3d4b3a67	0.049616244
125	0x3ddceae9	0.10786993
126	0x3e10615a	0.14099637
127	0xbddae247	-0.1068769
128	0x3e1f62d5	0.15565045
129	0x3d27764a	0.040884294
130	0x3dacc5fb	0.08436199
131	0xbdddbfb7	-0.10827582
132	0x3d67cea6	0.05659356
133	0xbe210778	-0.15725505
134	0xbe344253	-0.17603426
135	0xbddfcb66	-0.10927467
136	0x3c46392b	0.012098591
137	0x3d646752	0.055762596
138	0x3d7d30c4	0.061814085
139	0x3dc76f74	0.09738055
140	0x3d6a440e	0.05719381
141	0x3d5ebda2	0.054380067
142	0x3e20e935	0.15713961
143	0xbd0c5d7b	-0.034268837
144	0x3dce29f7	0.10066598
145	0x3e389cba	0.18028536
146	0xbe1dab1e	-0.15397307
147	0x3d8368d6	0.0641648
148	0x3de9ae96	0.11410253
149	0x3e8c9453	0.27456912
150	0xbe17e6be	-0.14834115
151	0x3c045e31	0.008079098
152	0x3d710a87	0.05884793
153	0xbcdba510	-0.026812106
154	0x3dd24d60	0.10268664
155	0xbe4b0b62	-0.19828561
156	0x3d3efee6	0.04662981
157	0xbcb64919	-0.022251653
158	0x3d6381f4	0.055543855
159	0x3c857fad	0.016296232
160	0xbdcf20e7	-0.101136975
161	0xbd9bddc8	-0.07610661
162	0xbb1cd65f	-0.0023931486
163	0xbda76a03	-0.08174517
164	0x3c1a5658	0.00942
165	0xbd879ba8	-0.06621486
166	0x3c4f80ea	0.012665013
167	0x3cae7234	0.02129469
168	0x3e3b089f	0.18265007
169	0xbd586f4f	-0.052840527
170	0x3e2c7ca3	0.1684442
171	0xbdcc3b6f	-0.099722736
172	0x3dc58d7c	0.09646127
173	0xbcdf220b	-0.027237913
174	0x3c8f9738	0.017528161
175	0xb9d73cfc	-0.00041053433
176	0x3db3463a	0.08753629
177	0x3e1e2f83	0.15447812
178	0x3e058daa	0.13042322
179	0x3de2938d	0.11063299
180	0xbd94d9dd	-0.072681166
181	0x3e3da38e	0.18519422
182	0xbd966080	-0.07342625
183	0xbd821cdd	-0.063531615
184	0xbe0b2d88	-0.13591588
185	0xbdf05422	-0.11734797
186	0x3b88d750	0.004176058
187	0x3dee5f70	0.11639297
188	0xbd29d038	-0.04145834
189	0xbe46e1a8	-0.19422019
190	0x3cf3c034	0.029754736
191	0x3e0478b2	0.12936667
192	0x3cc052bf	0.023476956
193	0xbd99a8f8	-0.07502931
194	0x3da923d0	0.08258784
195	0xbdc46a68	-0.09590608
196	0x3e2dfe4b	0.16991536
197	0xbdb273f4	-0.087135226
198	0x3db0bd87	0.086298995
199	0xbc9f849b	-0.01947241
200	0xbd8bece8	-0.06832296
201	0xbd26b514	-0.040700033
202	0x3d9bb3fe	0.0760269
203	0xbb0f3f96	-0.0021857969
204	0x3d243af2	0.040095277
205	0x3c9cc3ce	0.019136336
206	0xbc53fc37	-0.012938551
207	0xbd059d35	-0.032620627
208	0x3d8e05c4	0.069346935
209	0xbd8b4492	-0.06800188
210	0xbda58216	-0.080814525
211	0x3e1ba29c	0.1519875
212	0xbdb441a0	-0.088015795
213	0xbde745e7	-0.1129263
214	0xbdba2e58	-0.090908706
215	0xbd40be40	-0.047056437
216	0xbdca448f	-0.09876358
217	0xbd1dd97c	-0.038537487
218	0xbdd94cc0	-0.10610342
219	0xbdcee960	-0.101031065
220	0xbe640365	-0.2226692
221	0x3e18eab6	0.14933285
222	0x3e00e2a1	0.12586452
223	0xbe1d3701	-0.15353014
224	0x3ddd34a7	0.10801058
225	0xbddef5b9	-0.108867116
226	0x3d67bd6d	0.056577135
227	0xbd4ee8ef	-0.05051511
228	0x3e8f52b6	0.2799279
229	0x3d326037	0.04354879
230	0xbd89a25a	-0.06720419
231	0x3dadfa33	0.08494987
232	0xbccaf1b8	-0.024773464
233	0x3d375678	0.044760197
234	0x3e6c9a1e	0.23105666
235	0xbe38c232	-0.1804283
236	0x3a1691cc	0.00057437713
237	0xbd65d3e7	-0.05611029
238	0xbdee768f	-0.11643707
239	0xbd842554	-0.06452432
240	0x3d8140b5	0.0631117
241	0x3e086740	0.13320637
242	0x3da16d0e	0.07882129
243	0xbdb51e63	-0.088436864
244	0xbcea84be	-0.02862775
245	0xbd7c5169	-0.061601076
246	0xbc88a241	-0.016678931
247	0xbc4242e8	-0.011856772
248	0x3c53dba4	0.012930784
249	0xbbd5309e	-0.0065060398
250	0xbbd46884	-0.006482186
251	0x3b803d81	0.003913582
252	0x3d340312	0.04394824
253	0xbdb8f8f5	-0.0903186
254	0x3ca6bb6c	0.020353042
255	0xbdaedbab	-0.08537992

backbone_layer.0.bias f4 [128]
0	0xbddafcf6	-0.1069278
1	0xbdc1c859	-0.094620414
2	0x3d552046	0.05203273
3	0xbdf3c825	-0.11903409
4	0xbdd01a17	-0.10161226
5	0x3e11ad17	0.14226185
6	0xbe11d7d0	-0.14242482
7	0xbd18a4d3	-0.037266564
8	0x3dd0c275	0.1019334
9	0x3e244483	0.1604176
10	0x3dce2159	0.10064954
11	0x3d6b1098	0.057388872
12	0x3df081ba	0.117434934
13	0xbb1ba733	-0.0023750782
14	0xbdbd14ce	-0.09232484
15	0xbca7d78b	-0.020488521
16	0x3c97d86a	0.018535811
17	0xbdb3e2c9	-0.0878349
18	0x3dfc5e76	0.123227045
19	0xbca48721	-0.020083966
20	0x3d36d3f9	0.044635747
21	0x3dd65530	0.10465467
22	0x3df802a1	0.121098764
23	0xbd9cc210	-0.07654202
24	0xbdcce154	-0.100039154
25	0xbd0ba080	-0.03408861
26	0xbcae898e	-0.021305826
27	0xbc92154f	-0.017832426
28	0x3dfff238	0.124973714
29	0xbd9c464c	-0.076305956
30	0xbd9c570a	-0.07633789
31	0xbd7ecc6a	-0.062206663
32	0xbde60d3d	-0.11232994
33	0xbe073e56	-0.13207373
34	0x3e0dbf7b	0.13842575
35	0xbda9ab5b	-0.082846366
36	0x3ccbbb60	0.02486962
37	0x3d798f72	0.060927816
38	0x3e2d5d72	0.16930178
39	0xbd8e5e02	-0.06951524
40	0xbd578826	-0.052620076
41	0x3dd48334	0.103765875
42	0x3d31a727	0.0433723
43	0xbd5cefe6	-0.053939722
44	0x3dab41a1	0.08362127
45	0x3d9a3660	0.075299025
46	0xbdc4efb3	-0.096160315
47	0xbdb4210b	-0.08795365
48	0x3db572fb	0.088598214
49	0xbcb70319	-0.022340344
50	0xbe02360a	-0.12715927
51	0x3cdd36e3	0.027003711
52	0xbca892df	-0.020577846
53	0xbd8ff1d8	-0.0702855
54	0x3db8c8b1	0.09022654
55	0xbe001b3f	-0.12510394
56	0x3d24b8bf	0.04021525
57	0xbdc83675	-0.09776012
58	0x3dae6287	0.08514886
59	0x3d9e7e62	0.07738949
60	0xbe0ea5cb	-0.13930432
61	0x3d801f84	0.06256011
62	0xbe18d9ec	-0.1492688
63	0xbd4e541c	-0.05037318
64	0xbdc709f1	-0.09718693
65	0x3e1e2862	0.15445092
66	0xbd026d4e	-0.031842522
67	0x3d4ff54f	0.050771054
68	0xbdb55865	-0.088547505
69	0xbc17a4d3	-0.009255606
70	0xbda35296	-0.079747364
71	0x3c273de1	0.010207624
72	0x3dec0ca5	0.11525849
73	0xbd8fe53c	-0.07026145
74	0x3e154b5c	0.14579529
75	0xbde1f4e2	-0.11033036
76	0xbdf7003d	-0.12060592
77	0x3db05d36	0.086115286
78	0xbe15d7c0	-0.14633083
79	0x3c957869	0.018245893
80	0xbd474028	-0.04864517
81	0xbc06e4d0	-0.008233264
82	0x3dc95f42	0.09832622
83	0xbca00ae9	-0.019536452
84	0xbd8caf4c	-0.06869373
85	0xbe0ee94f	-0.13956188
86	0xbd236a75	-0.039896447
87	0xbdd62d24	-0.10457829
88	0xbde9b5f6	-0.114116594
89	0xbb3eb0ef	-0.002909716
90	0x3e194a84	0.14969832
91	0xbdb99e20	-0.09063363
92	0xbd8b4eb7	-0.06802123
93	0x3c96a429	0.018388825
94	0x3cf3af45	0.029746661
95	0x3dac657a	0.084177926
96	0x3e01da0d	0.12680836
97	0x3da5f826	0.08103971
98	0x3d8396b2	0.06425227
99	0xbc057f29	-0.008147993
100	0x3dad0eb0	0.08450067
101	0x3d50db62	0.05099047
102	0x3c860eed	0.016364539
103	0x3ca34e60	0.019934833
104	0x3d75cdb3	0.060010623
105	0xbd9a6113	-0.07538047
106	0x3db8cab3	0.09023037
107	0xbcc51653	-0.024058497
108	0x3d898c7a	0.06716247
109	0x3d09c974	0.033639386
110	0xbdefd6a1	-0.11710859
111	0xbda78ec4	-0.08181527
112	0x3dd69609	0.10477836
113	0xbdad67a8	-0.084670365
114	0xbbe072e7	-0.006849635
115	0x3ce2aee1	0.02767128
116	0x3e3f9045	0.18707378
117	0x3d54aa9c	0.05192052
118	0x3df8be6c	0.12145695
119	0xbc9bc9c7	-0.019017113
120	0x3d39f43a	0.04539893
121	0x3d2f4251	0.042787854
122	0x3c9694d8	0.018381521
123	0x3e038960	0.12845373
124	0x3db7d50f	0.089761846
125	0x3e1c3def	0.15258001
126	0xbe0be211	-0.13660456
127	0x3ce4d35e	0.027932819

backbone_layer.1.weight f4 [128, 128]
0	0x3d21aa50	0.039469063
1	0x3d928c76	0.07155697
2	0x3ae7edd2	0.0017694777
3	0xbdf060c9	-0.1173721
4	0xbd898f74	-0.06716815
5	0xbd4878e6	-0.048943423
6	0xbd64adb6	-0.055829726
7	0x3d607c30	0.054805934
8	0x3c966c13	0.01836208
9	0xbda65db6	-0.08123343
10	0x3dbfd88a	0.093674734
11	0xba77e5b7	-0.00094565324
12	0x3deeaa08	0.11653525
13	0x3c16e31c	0.0092094205
14	0x3a072215	0.000515492
15	0xbd887eaf	-0.06664788
16	0xbda1d725	-0.07902364
17	0x3e05ec0e	0.13078329
18	0x3d49f69b	0.049307447
19	0x3ce95690	0.028483659
20	0x3d8ddd36	0.06926958
21	0x3dd075b9	0.10178704
22	0x3cec3543	0.02883399
23	0x3c960a27	0.018315388
24	0xbc2937bf	-0.010328232
25	0x3d8542e2	0.065068975
26	0x3e08bf3d	0.13354202
27	0xbd89682e	-0.06709324
28	0x3cfaed59	0.030630754
29	0xbdc2284c	-0.09480342
30	0x3d9d9270	0.07693946
31	0xbdcef83e	-0.10105942
32	0x3e1dbc16	0.1540378
33	0x3d9d4e05	0.07680897
34	0x3d27136c	0.040790007
35	0xbd42c0fa	-0.047547318
36	0x3d55deb3	0.052214336
37	0x3de292bc	0.110631436
38	0x3d234994	0.03986509
39	0x3b524a15	0.0032087613
40	0xbd5ea8ab	-0.054360073
41	0x3d52b718	0.051444143
42	0x3d969f90	0.07354653
43	0xbdbabde4	-0.0911825
44	0xbcd73c71	-0.026273938
45	0x3d5bbb55	0.05364545
46	0x3d8c68e5	0.068559445
47	0x3b975022	0.004617707
48	0x3d5f66d3	0.05454142
49	0xbc13fa4e	-0.009031845
50	0x3cab6c42	0.020925645
51	0x3d4a15ba	0.049337126
52	0x3cbf2b3e	0.02333605
53	0x3e093b8f	0.13401626
54	0xbd831ff0	-0.06402576
55	0xbb7da511	-0.0038703124
56	0xbcf1ef99	-0.029533194
57	0x3de95be3	0.11394479
58	0x3d8078ff	0.06273078
59	0x3c0e8482	0.0086985845
60	0x3d7cc96f	0.06171554
61	0xbcbc8cda	-0.023016382
62	0x3d40c950	0.047066987
63	0x3d47cdbb	0.048780184
64	0x3aeb6f30	0.0017962214
65	0x3d08d518	0.033406347
66	0x3e16f0e6	0.14740333
67	0xbbcaaebe	-0.0061853817
68	0xbd233f52	-0.03985531
69	0xbd538845	-0.05164363
70	0xbd42d27b	-0.04756401
71	0x3d4c975f	0.049949046
72	0x3d65668e	0.056006007
73	0x3c0451be	0.0080761295
74	0xbd26c4b0	-0.04071492
75	0xbd8573ad	-0.06516204
76	0x3da9b0b7	0.08285659
77	0xba69c48c	-0.00089175324
78	0xbbfe052d	-0.007752082
79	0xbd33b886	-0.043877147
80	0xbcd9b225	-0.026574204
81	0x3d4168c6	0.04721906
82	0xbcc820b0	-0.02442965
83	0xbd4bdb86	-0.0497699
84	0xbd6257c9	-0.0552595
85	0x3d1d4522	0.03839601
86	0x3dde93b3	0.10868015
87	0x3dad2116	0.08453576
88	0xbd0dc82c	-0.034614727
89	0xbdc1f2a3	-0.094701074
90	0x3da063b6	0.07831518
91	0x3d171f9b	0.036895376
92	0x3d6f9657	0.058492985
93	0xbd4535e3	-0.048147094
94	0x3d929272	0.071568385
95	0x3dcecd9d	0.10097811
96	0xbc58a431	-0.01322274
97	0x3ca844a7	0.020540548
98	0x3dafb0a3	0.08578613
99	0xbd393f56	-0.045226417
100	0x3c7c85b6	0.015412739
101	0x3d85da63	0.065357946
102	0x3cf9c37a	0.030488718
103	0x3b86c2a4	0.0041125584
104	0xbc58b414	-0.013226528
105	0x3d682530	0.05667609
106	0xbd348e65	-0.04408111
107	0xbd3da66f	-0.0463013
108	0xbbfc47d1	-0.007698991
109	0x3d573e1e	0.052549474
110	0x3de236dd	0.110456206
111	0x3dd38efb	0.10330006
112	0xbcc53e48	-0.02407755
113	0x3c17ebab	0.009272496
114	0x3d03c3e2	0.03216923
115	0x3dcfe5b2	0.10151233
116	0x3d36cadd	0.04462706
117	0x3c8c8287	0.017152084
118	0xbd438978	-0.047738522
119	0x3d6533cf	0.05595761
120	0x3d738bc4	0.059459463
121	0x3d166595	0.03671797
122	0xbd899148	-0.06717163
123	0x3c856432	0.016283128
124	0xbd32dc60	-0.043667197
125	0xbd43b5a3	-0.047780644
126	0x3d2d18af	0.04225987
127	0x3dd3903c	0.10330245
128	0x3d729974	0.059228376
129	0xbda9695d	-0.082720496
130	0xbda63e63	-0.08117368
131	0x3d87fdf0	0.066402316
132	0x3d2fafab	0.04289214
133	0x3ddd5d5f	0.10808825
134	0x3b8e95b0	0.0043513402
135	0xbd3efa73	-0.046625566
136	0x3d9c7cd8	0.076409996
137	0xbe065174	-0.1311701
138	0xbb591ad7	-0.003312757
139	0x3e06f71f	0.13180207
140	0x3d9958ff	0.07487678
141	0x3de9a76b	0.114088856
142	0xbdfe54d2	-0.12418522
143	0xbcb51a3d	-0.022107238
144	0x3d9682eb	0.07349189
145	0x3d27580c	0.040855452
146	0xbd108cbd	-0.03529047
147	0xbda646c7	-0.081189685
148	0x3daf554d	0.08561192
149	0x3d5ede9c	0.054411516
150	0x3d215300	0.039385796
151	0x3dd250ef	0.10269343
152	0x3c0026d1	0.007821755
153	0x3d3a1410	0.04542929
154	0x3cf38230	0.029725164
155	0xba4cc35b	-0.00078110927
156	0xbd67440f	-0.05646139
157	0xbccabb64	-0.024747558
158	0xbc93fee5	-0.01806588
159	0x3b484188	0.0030556638
160	0x3e22de5d	0.15905137
161	0x3d292745	0.041297216
162	0xbd6fc59f	-0.058538076
163	0xbb545fb5	-0.0032405679
164	0xbc9732d0	-0.018456846
165	0xbd5f1aba	-0.054468848
166	0x3d5f28f7	0.054482426
167	0xbc982b3a	-0.0185753
168	0x3d59e33d	0.053195227
169	0x3d6a6cc7	0.057232644
170	0x3b8ff787	0.004393521
171	0x3d994d21	0.07485414
172	0x3d42eef1	0.047591154
173	0x3d8e7c1f	0.06957268
174	0xbd852bdb	-0.065025054
175	0x3d0173ba	0.031604506
176	0xbd2566f9	-0.040381406
177	0x3d91c6ce	0.07117997
178	0x3bb25f88	0.005443517
179	0x3d9dcafc	0.07704732
180	0xbd17c564	-0.03705348
181	0x3dda64f0	0.106637836
182	0x3d9b0afe	0.07570456
183	0x3bc48233	0.0059969663
184	0x3d0376ba	0.03209565
185	0x3d19d959	0.037560795
186	0xbb930e20	-0.004487768
187	0x3cfe5b1c	0.031049304
188	0xbc2cfab4	-0.010557819
189	0xbdf486bd	-0.11939762
190	0x3ce63dad	0.028105581
191	0xbdb80608	-0.08985525
192	0xbcae9014	-0.021308936
193	0x3dd4c096	0.10388295
194	0x3d38eb67	0.045146372
195	0xbcf324ab	-0.02968057
196	0x3d06c484	0.032902256
197	0xbd56aa0c	-0.052408263
198	0x3e11f689	0.14254202
199	0xbcb0cd55	-0.021582285
200	0x3da369a4	0.07979134
201	0xbd29ff47	-0.041503217
202	0xbd41061e	-0.047124974
203	0xbcec3b72	-0.02883694
204	0xbd96b01c	-0.07357809
205	0xba31baab	-0.000677983
206	0xbd5038ed	-0.05083554
207	0x3d624da3	0.05524982
208	0x3d80f021	0.06295801
209	0xbdc79999	-0.09746093
210	0xbd938f9a	-0.07205124
211	0x3b984461	0.0046468233
212	0x3bec7844	0.007216485
213	0xbcb2e604	-0.021838196
214	0xbe1805ee	-0.14846012
215	0x3db6fdbc	0.08935115
216	0xbdb651e1	-0.08902336
217	0x3cb47566	0.022028636
218	0xbd9b6bc4	-0.07588914
219	0x3d7e6789	0.062110458
220	0x3d6d2a52	0.057901688
221	0x3d583604	0.05278589
222	0xbae1239b	-0.0017176749
223	0x3dd88248	0.10571724
224	0xbd465361	-0.04841936
225	0x3b8fb2ec	0.004385343
226	0x3c937dc1	0.0180043
227	0x3d2d6311	0.042330805
228	0x3d9adf2d	0.07562099
229	0x3d69d0d6	0.057083927
230	0x3d4db709	0.050223384
231	0x3d840600	0.06446457
232	0xbcfb470c	-0.030673526
233	0xbd1a64c7	-0.037693765
234	0xbc849d14	-0.016188182
235	0x3ccdaa3d	0.02510559
236	0x3cacd40e	0.02109721
237	0xbdfb79ce	-0.12279092
238	0x3ca93113	0.020653283
239	0x3c8a3b05	0.016873846
240	0xba52b60c	-0.00080379914
241	0x3e13dcb7	0.14439665
242	0x3baa6a0a	0.005200629
243	0xbd88cb9b	-0.0667946
244	0x3d848c3b	0.06472059
245	0x3cee8100	0.029114246
246	0x3d4c45d3	0.049871277
247	0x3d6b37f0	0.057426393
248	0x3d7215e0	0.059102893
249	0x3ccb0393	0.024781978
250	0x3e0468d3	0.12930612
251	0x3d89c60b	0.06727227
252	0xbc314178	-0.010818832
253	0xbd5fbc78	-0.054623097
254	0x3cbc2338	0.022966012
255	0x3d25ed5b	0.040509563

backbone_layer.1.bias f4 [128]
0	0xbc5010f6	-0.012699356
1	0xbd246376	-0.040133916
2	0xbd9afd28	-0.07567817
3	0x3be0f4bd	0.0068651126
4	0x3d429a7d	0.047510613
5	0x3b285ac8	0.0025688875
6	0x3c5674fe	0.013089417
7	0x3d8228d1	0.06355441
8	0xbd83aeb5	-0.06429807
9	0xbdb708d4	-0.08937231
10	0x3d4464ff	0.04794788
11	0x3d826344	0.0636659
12	0xbc81977c	-0.015819304
13	0x3d87ddaf	0.0663408
14	0x3b4b21e0	0.0030995533
15	0xbd61c619	-0.05512056
16	0xbd62c061	-0.055359248
17	0x3d6a6dbe	0.057233565
18	0x3c44888f	0.011995449
19	0x3d71189a	0.058861353
20	0x3c9fd1b6	0.019509178
21	0x3d11f56b	0.03563444
22	0x3cb859e8	0.022503808
23	0xbb4615dd	-0.0030225434
24	0xbcf85188	-0.030312315
25	0xbd554815	-0.052070696
26	0x3c636cca	0.013880918
27	0xbcd77835	-0.026302436
28	0xbd138529	-0.036015663
29	0xba7dd748	-0.00096832635
30	0xbd979fb8	-0.07403511
31	0x3d5ad324	0.053424016
32	0x3c02bf57	0.007980189
33	0xbd8487cb	-0.06471213
34	0x3d979338	0.074011266
35	0xbd35130b	-0.044207614
36	0x3daf3007	0.08554082
37	0xbd81f569	-0.063456364
38	0x3d86e5ee	0.06586824
39	0xbd8483ea	-0.06470473
40	0xbd7b05f7	-0.061284985
41	0xbdc0d188	-0.09414965
42	0xbbae9b2c	-0.0053285565
43	0x3d255cac	0.040371582
44	0x3c4fd978	0.012686126
45	0xbcb31350	-0.021859795
46	0x3db559d0	0.08855021
47	0x3cdd1785	0.026988754
48	0xbd886bd1	-0.06661189
49	0x3d925fed	0.07147203
50	0xbd3dbb4a	-0.04632119
51	0xbd49b9ba	-0.04924939
52	0x3c400aa2	0.011721285
53	0xbc8bd6bd	-0.017070169
54	0xbdab21a6	-0.08356027
55	0x3d117c69	0.035519037
56	0xba97fe73	-0.0011596218
57	0x3cc39609	0.023875253
58	0x3d8fc59d	0.070201136
59	0xbd36a669	-0.044592295
60	0x3bb5212d	0.0055276365
61	0xbd5ffcdc	-0.054684505
62	0x3d974454	0.073860794
63	0xbce64d0c	-0.02811291
64	0xbd3495f4	-0.04408832
65	0xbb559f6c	-0.0032596244
66	0xbbb8fad9	-0.0056451377
67	0x3dd8ad2e	0.105799064
68	0x3d269f19	0.04067907
69	0x3d67f8f0	0.05663389
70	0xbd16afc2	-0.03678871
71	0x3da8d620	0.08243966
72	0xbd9fc09d	-0.0780041
73	0x3d5cc20e	0.053896002
74	0xbda41989	-0.08012683
75	0xbd1559aa	-0.036462463
76	0xbd6ecaba	-0.058298804
77	0x3d976102	0.0739155
78	0x3d5176b0	0.05113858
79	0x3d69297f	0.05692434
80	0x3b826672	0.0039794976
81	0xbd13edc1	-0.03611541
82	0x3bbf7517	0.0058428156
83	0x3d9956ad	0.07487235
84	0x3cef7ef4	0.02923534
85	0xbd8429cf	-0.06453287
86	0xbc4ca006	-0.012489324
87	0xbd93d5f6	-0.07218544
88	0xbd2cda86	-0.042200588
89	0x3c95964c	0.018260144
90	0xbc14ea62	-0.009089084
91	0x3d621860	0.055199027
92	0x3d9d46bb	0.076795064
93	0x3d12f70c	0.035880134
94	0xbd10b7b8	-0.035331458
95	0xbd50d170	-0.050980985
96	0x3d92890d	0.071550466
97	0xbd805b1d	-0.062673785
98	0x3d84040d	0.06446085
99	0xbd53cc8a	-0.051708736
100	0xbd875689	-0.06608302
101	0xbd3f7182	-0.04673911
102	0x3cf667b6	0.03007875
103	0x3b188ba1	0.0023276585
104	0xbd83cf46	-0.06436019
105	0xbd968462	-0.07349469
106	0xbd1b2b25	-0.037882943
107	0x3c99bfba	0.01876818
108	0x3cf86687	0.030322326
109	0x3d3d18ff	0.046166416
110	0xbd774626	-0.060369633
111	0xbd8488a7	-0.06471377
112	0x3ca2d8c0	0.019878745
113	0x3d0b15ae	0.033956222
114	0xbd8853ee	-0.06656633
115	0x3baacec8	0.0052126385
116	0x3a9ddb8a	0.0012043577
117	0x3c48c094	0.012252945
118	0xbd594d46	-0.05305221
119	0x3d5bc3e5	0.053653616
120	0xbda11e65	-0.078671254
121	0x3c7d3c2a	0.015456239
122	0x3c8f27b4	0.017474987
123	0x3d033099	0.03202877
124	0xbd28bacb	-0.041193765
125	0xbb406b2b	-0.0029360752
126	0xbd682604	-0.05667688
127	0x3d5f9455	0.05458482

backbone_layer.2.weight f4 [128, 128]
0	0x3daccc8c	0.08437452
1	0xbd3aedbd	-0.04563688
2	0x3c1dd47b	0.009633179
3	0xbd132f5e	-0.035933845
4	0x3d53874a	0.051642694
5	0xbd8406ba	-0.064465955
6	0x3d3a8a4f	0.045542058
7	0x3d8480f6	0.0646991
8	0x3daf86c6	0.08570628
9	0xbcbad137	-0.02280484
10	0xbe0e5ad4	-0.13901836
11	0xbd80eb98	-0.06294936
12	0x3e1cc1e8	0.15308344
13	0x3b8bb9a8	0.0042640753
14	0xbc808b1d	-0.015691334
15	0x3d76bef0	0.060240686
16	0x3d1ce96f	0.038308557
17	0x3c9ecadc	0.01938384
18	0xbde6e80d	-0.11274729
19	0x3caa9952	0.020825062
20	0x3e665514	0.22493392
21	0xbd3c39b0	-0.045953453
22	0xbd5c4ece	-0.05378609
23	0x3d677daf	0.056516346
24	0x3da509cd	0.0805851
25	0x3dba552b	0.09098276
26	0x3d839d73	0.064265154
27	0x3e30f3ef	0.17280553
28	0x3dba5601	0.09098435
29	0xbda7b68c	-0.08189115
30	0xbd91aa5b	-0.07112571
31	0x3bb257ac	0.00544258
32	0xbc98feb1	-0.018676134
33	0xbdde7018	-0.10861224
34	0x3d415efb	0.04720972
35	0xbc5951ad	-0.013264102
36	0x3c71aecf	0.01475115
37	0xbbab9992	-0.005236813
38	0x3d478913	0.04871471
39	0x3d856ee7	0.065152936
40	0x3c249ce3	0.01004717
41	0x3dc13daf	0.09435593
42	0xbcfbf314	-0.030755557
43	0x3b357573	0.0027688413
44	0xbb1e5d74	-0.002416459
45	0xbc39df3b	-0.011344726
46	0xbd2854b2	-0.041096397
47	0x3dbd28c1	0.09236289
48	0x3e24c11e	0.16089293
49	0xbb62c5f7	-0.003460286
50	0x3c6962eb	0.014244775
51	0x3e04d549	0.12971987
52	0x3d8d0376	0.06885426
53	0x3d7ee635	0.06223126
54	0x3e7383c2	0.2378073
55	0x3dbc1ca0	0.09185147
56	0x3ce5fc43	0.02807439
57	0x3c1a1be6	0.009406066
58	0x3e43a7ca	0.19106975
59	0x3d90ad95	0.07064358
60	0xbcfed03c	-0.031105153
61	0x3dcd0f71	0.10012711
62	0xbd711441	-0.058857206
63	0x3d010fdd	0.03150927
64	0x3cffd8fe	0.0312314
65	0x3c5c445e	0.013444034
66	0x3cbc9bb6	0.023023468
67	0x3c5349b7	0.012895993
68	0x3d8f16ef	0.06986796
69	0xbd8b5355	-0.06803004
70	0x3e00f85d	0.12594743
71	0x3b571589	0.0032819232
72	0x3e1e64de	0.15468165
73	0xbdc07bce	-0.09398614
74	0x3d8cd4af	0.06876504
75	0x3d13853c	0.036015734
76	0xbbc91041	-0.006135971
77	0x3c27f0ee	0.010250313
78	0x3bf840a2	0.007576064
79	0xbc83b3cd	-0.016076947
80	0x3e1116c2	0.14168838
81	0xbd94c6cc	-0.0726448
82	0x3c9952a8	0.018716171
83	0xbd862cac	-0.06551489
84	0x3d42ca20	0.047556043
85	0xbd4204ab	-0.047367733
86	0x3d8fd953	0.07023873
87	0x3e03b510	0.12862039
88	0x3c5142b0	0.012772247
89	0x3d9e4e91	0.07729829
90	0xbd7243a4	-0.05914654
91	0xbcf44577	-0.02981828
92	0x3d305579	0.043050263
93	0xbb0d9627	-0.002160439
94	0xbc57d844	-0.01317412
95	0x3e17f724	0.1484037
96	0xbbba5eed	-0.0056875856
97	0x3daee0b8	0.085389555
98	0x3dd4b97c	0.10386941
99	0x3dce84c7	0.10083919
100	0xbda8f2fe	-0.08249472
101	0xbc8eb153	-0.01741854
102	0x3ca18920	0.019718707
103	0xbd80240d	-0.06256876
104	0x3cfd1f64	0.030898757
105	0x3d2af9f2	0.041742273
106	0x3d5e6ac5	0.054301042
107	0x3dc150a7	0.09439211
108	0x3c92921a	0.017891932
109	0x3d19a0a9	0.037506733
110	0xbbadc661	-0.0053031896
111	0x3d4c8365	0.049929995
112	0xbda1d470	-0.07901847
113	0xbbfa11b9	-0.0076315072
114	0xbdf3efab	-0.119109474
115	0x3d454c14	0.048168257
116	0x3d3b9b36	0.045802318
117	0x3d5a7856	0.053337418
118	0x3d187955	0.037225086
119	0xbce5cf63	-0.028052991
120	0x3d81d840	0.063400745
121	0xbd428c7a	-0.04749725
122	0x3c98d0e5	0.018654296
123	0x3d50df6f	0.050994333
124	0x3d8ffcbf	0.07030629
125	0x3d91095c	0.07081863
126	0xbd323156	-0.04350408
127	0xbdaa0cb2	-0.08303203
128	0xbd865888	-0.06559855
129	0x3d9c8cbf	0.07644033
130	0x3d29f3bf	0.04149222
131	0x3d418186	0.047242664
132	0x3d49d06f	0.049271043
133	0x3c3bd47b	0.0114642335
134	0x3d0d8155	0.03454717
135	0x3df36b3d	0.118856885
136	0x3c438d85	0.011935596
137	0x3da3d17d	0.07998941
138	0xbe09ec6c	-0.13469094
139	0xbd31ab61	-0.04337633
140	0xbbb73944	-0.0055915434
141	0xbcc4fa35	-0.02404509
142	0x3d16b898	0.036797136
143	0xbda8fb53	-0.08251061
144	0x3c57268f	0.013131752
145	0xbd45ec69	-0.04832116
146	0xbd8c4611	-0.068493016
147	0x3d0c3a51	0.034235302
148	0x3e2efb1b	0.17087977
149	0xbd4d554f	-0.050130185
150	0xbd01bd3d	-0.031674612
151	0xbd18ab60	-0.03727281
152	0x3d79c3e8	0.060977846
153	0x3d9285a5	0.07154397
154	0xbcdfb2e5	-0.027306983
155	0x3cabf1c2	0.020989303
156	0x3e25d13b	0.16193096
157	0x3cf4e726	0.029895376
158	0xbc2989a1	-0.010347755
159	0x3e0d5ebc	0.1380567
160	0x3d242a06	0.04007914
161	0xbc8d0d43	-0.017218238
162	0x3d39f911	0.045403544
163	0x3daa99a1	0.08330084
164	0xbc69de7c	-0.014274236
165	0x3d35b59f	0.04436266
166	0x3c9bae92	0.01900414
167	0x3dc5e78b	0.09663304
168	0x3bde5d87	0.0067860517
169	0x3da7cb31	0.081930526
170	0xbc010b16	-0.007876178
171	0xbd26953c	-0.040669665
172	0xba280225	-0.0006409011
173	0xbe02f497	-0.12788616
174	0x3db1d245	0.08682684
175	0xbc3a0198	-0.011352919
176	0x3d86a34d	0.06574116
177	0xbdb212f9	-0.08695025
178	0x3dd75cc4	0.105157405
179	0x3d81634c	0.063177675
180	0xbd05025a	-0.032472946
181	0xbd040624	-0.03223242
182	0x3e819db4	0.2531563
183	0xbd5a9bba	-0.05337117
184	0x3dc0e9c4	0.09419587
185	0x3d27916a	0.040910162
186	0x3d2ba203	0.041902553
187	0x3d090ae9	0.03345767
188	0xbc86422a	-0.016388971
189	0x3c696cf3	0.014247167
190	0x3d003c12	0.031307288
191	0x3db1e2a6	0.08685808
192	0x3d44a2f3	0.048006963
193	0x3d8fb94f	0.07017767
194	0xbd6d3620	-0.057912946
195	0xbcb3d5d0	-0.02195254
196	0x3ceaa140	0.028641343
197	0x3d4e95c2	0.05043579
198	0x3e30def5	0.17272551
199	0x3cfacf90	0.030616552
200	0x3b945309	0.0045265
201	0xbdcbc89b	-0.09950372
202	0x3d038f7e	0.032119267
203	0x3a6d6afc	0.00090567744
204	0x3db37cab	0.08764013
205	0x3da65dae	0.08123337
206	0x3d800f9c	0.06252977
207	0xbb90223a	-0.0043986114
208	0x3ac5b015	0.0015082384
209	0x3c5b8932	0.013399409
210	0x3da585f6	0.08082192
211	0xbddb90e7	-0.10720997
212	0xbd85d7d1	-0.06535304
213	0x3dc65ad8	0.09685296
214	0x3d4a4ac0	0.049387693
215	0x3e094085	0.13403518
216	0x3daa3c29	0.08312256
217	0x3d94d568	0.072672665
218	0x3d01d666	0.031698607
219	0x3cb3ef97	0.021964831
220	0xbdb75d0b	-0.089532934
221	0x3cd496de	0.025950845
222	0x3d408dfb	0.047010403
223	0x3e16d3dd	0.14729257
224	0x3da98bc3	0.082786106
225	0xbd201857	-0.039085712
226	0x3df857cf	0.12126123
227	0x3d916347	0.07099014
228	0xbdb20ce0	-0.08693862
229	0x3c545ed2	0.01296206
230	0x3d8e5de7	0.06951504
231	0x3c53c83f	0.01292616
232	0x3de00af0	0.10939586
233	0xbbc9d664	-0.0061595906
234	0xbd7b1a66	-0.061304472
235	0xb942d10c	-0.00018579158
236	0x3d4bd1b9	0.049760554
237	0xbd0e2d1f	-0.034711
238	0x3d8555ca	0.065105036
239	0x3de1e60b	0.11030205
240	0x3d328929	0.043587837
241	0x3d45ded6	0.048308216
242	0xbbf3be83	-0.0074384823
243	0x3da1b34d	0.07895527
244	0xbd785503	-0.06062795
245	0x3cf76014	0.03019718
246	0x3d0c871c	0.034308538
247	0x3c8c0e98	0.017096803
248	0x3bab1ba3	0.0052218004
249	0xbd6d8a3c	-0.05799316
250	0xbd3f7543	-0.04674269
251	0x3d54fc6e	0.05199855
252	0x3d5148ca	0.051094808
253	0x3d77aa3a	0.060465075
254	0xbbb528ed	-0.0055285604
255	0xbdf7ff5a	-0.12109251

backbone_layer.2.bias f4 [128]
0	0x3d32ecc2	0.04368282
1	0xbb97e926	-0.0046359478
2	0xbd219541	-0.03944898
3	0x3da6239b	0.0811226
4	0x3d8118ad	0.06303535
5	0x3d96d3f1	0.07364643
6	0xbda8fe6e	-0.082516536
7	0x3da2b38f	0.07944404
8	0x3d1de71f	0.038550492
9	0x3d368896	0.044563852
10	0xbcdf69e3	-0.02727217
11	0x3cfd4c9b	0.030920317
12	0x3d6c296a	0.057656683
13	0xbdc1bfa1	-0.094603784
14	0x3d264720	0.040595174
15	0xbd5745c6	-0.052556776
16	0x3d20061c	0.039068326
17	0x3d642806	0.05570223
18	0x3d01ec76	0.031719647
19	0x3c1e84bd	0.009675202
20	0x3caf87c4	0.021427043
21	0xbd9674a6	-0.07346468
22	0x3d934499	0.07190818
23	0xbcfde9ea	-0.030995328
24	0x3c83e954	0.01610247
25	0x3d50a599	0.050939176
26	0xbc96b073	-0.018394684
27	0x3cbf1f98	0.023330495
28	0x3d5f9105	0.05458166
29	0x3d853e43	0.06506016
30	0x3da1bf65	0.07897834
31	0x3a6cce9f	0.00090334745
32	0xbc2adc8b	-0.010428558
33	0x3cfbabe1	0.030721607
34	0xbdba6d01	-0.09102822
35	0x3d100956	0.035165153
36	0xbd16f567	-0.036855128
37	0x39d09393	0.00039782803
38	0x3d4f322a	0.05058495
39	0x3dd24024	0.1026614
40	0xbd47750f	-0.04869562
41	0xbc739df3	-0.014869201
42	0x3d21e24a	0.039522447
43	0xbc38da07	-0.0112824505
44	0xbbe2ff8c	-0.006927436
45	0x3d283bfa	0.041072823
46	0xbd8e19ed	-0.06938539
47	0xbd358233	-0.04431362
48	0xbc1da92f	-0.009622856
49	0x3d3732c9	0.044726167
50	0x3d8e4044	0.069458514
51	0x3d0a5c4b	0.033779424
52	0x3d99ba49	0.07506234
53	0xbb76ef24	-0.003767916
54	0xbd45d533	-0.048299026
55	0x3c23e7ae	0.010003967
56	0xbd398945	-0.045296926
57	0x38f69810	0.00011758518
58	0x3d1796a1	0.037008885
59	0x3dd4d125	0.10391454
60	0xbd3997c8	-0.045310766
61	0x3d27b3b3	0.04094286
62	0x3cb32f98	0.02187328
63	0x3d5c355a	0.053761818
64	0x3dac3928	0.08409339
65	0x3d158d7e	0.03651189
66	0x3bf4082e	0.007447264
67	0xb9c6e2d6	-0.0003793451
68	0xbd36a8b7	-0.044594493
69	0xbdd1f9c9	-0.10252721
70	0xbcd082c7	-0.025452984
71	0x3af8af5a	0.0018973157
72	0xbd01909f	-0.031632062
73	0xbcca3fc7	-0.024688615
74	0xbca0f967	-0.019650174
75	0x3d2af157	0.041734066
76	0x3cadfa6b	0.021237573
77	0xbca51610	-0.020152122
78	0xbcfee3ac	-0.031114422
79	0x3d14d57d	0.03633641
80	0xbcd58272	-0.026063178
81	0x3d5fafad	0.054610897
82	0x3d02be0d	0.031919528
83	0xbd973efc	-0.0738506
84	0x3c05c67e	0.008165
85	0x3c80d906	0.015728485
86	0x3d2fc4fb	0.042912465
87	0x3d4077b9	0.046989176
88	0x3d1550d9	0.036454055
89	0x3c262065	0.010139559
90	0x3d05ce1f	0.032667276
91	0x3d6d7373	0.05797143
92	0x3d84e8f0	0.06489742
93	0x3d7735b7	0.06035396
94	0x3d7ea50d	0.062169123
95	0xbd35910a	-0.044327773
96	0xbc847916	-0.01617102
97	0x3da494dd	0.08036206
98	0x3d5c2c2f	0.053753074
99	0xbd0715cf	-0.032979783
100	0xbda57f44	-0.080809146
101	0xbdcf03a8	-0.10108119
102	0x3c2ae0bc	0.010429557
103	0xbd8a53ad	-0.06754241
104	0xbd929c76	-0.07158749
105	0xbd052f61	-0.032515887
106	0xbd5d6ee9	-0.05406085
107	0x3d23bec0	0.039976835
108	0x3d6ea287	0.058260467
109	0xbd748810	-0.05970007
110	0x3d52cb60	0.051463485
111	0xbdb996b3	-0.09061947
112	0x3b1f5335	0.002431107
113	0xbd847cce	-0.06469117
114	0x3d01b297	0.031664457
115	0xbd2c11e6	-0.042009257
116	0xbd945cc8	-0.07244259
117	0xbd5cfb5e	-0.05395066
118	0xbdb1b34f	-0.086767785
119	0x3cfcdde9	0.030867534
120	0xbaeaddfa	-0.0017918937
121	0xbd970b9c	-0.07375261
122	0x3cc66548	0.024218217
123	0x3ce9af88	0.028526083
124	0x3bd6b5a1	0.0065524136
125	0xba0ec654	-0.00054464233
126	0xbd089d35	-0.03335305
127	0xbd9b5810	-0.07585156

backbone_layer.3.weight f4 [128, 128]
0	0xbc8baef9	-0.017051207
1	0xbd94ddc4	-0.07268861
2	0x3daeb4ba	0.085305646
3	0xbd631f8d	-0.05545001
4	0x3d1e6a47	0.038675573
5	0x3c65dc0e	0.014029516
6	0xbe3fa39e	-0.18714759
7	0x3d897829	0.06712372
8	0xbdaafd24	-0.08349064
9	0x3ddda605	0.10822681
10	0xbd9ef7fc	-0.07762143
11	0xbdab4b1f	-0.083639376
12	0xbd82ec73	-0.06392755
13	0xbe77ec5f	-0.24211262
14	0x3d165355	0.036700565
15	0xbebbfc78	-0.36716056
16	0x3d7cb82c	0.061699077
17	0x3d0067fd	0.03134917
18	0x3d4f8bac	0.05067031
19	0xbce75b14	-0.028241672
20	0x3dc7cfbd	0.0975642
21	0x3ce1c129	0.027557926
22	0xbc97a96e	-0.018513408
23	0x3d0699d8	0.03286156
24	0xbd1c1617	-0.038107004
25	0xbd3deffb	-0.04637144
26	0xbe9d6001	-0.30737308
27	0x3c8b3204	0.016991623
28	0x3d1354a3	0.035969388
29	0x3daccc0b	0.084373556
30	0x3d2e8c51	0.042614285
31	0x3d7bc1e9	0.061464224
32	0x3e11b43a	0.14228907
33	0x3d39c363	0.04535235
34	0xbe5559c5	-0.20835026
35	0xbd378d6d	-0.04481261
36	0xbda8d725	-0.082441606
37	0xbe19be0c	-0.15013903
38	0x3da8df75	0.08245746
39	0x3cdf1dc4	0.027235873
40	0xbdefd622	-0.117107645
41	0x3d7f222c	0.06228845
42	0xbdaa9a0c	-0.08330163
43	0xbdf30552	-0.11866249
44	0xbd9a737f	-0.075415604
45	0x3d4641e8	0.048402697
46	0xbe8a8363	-0.27053365
47	0x3ee01e57	0.43773147
48	0xbdcd1bf1	-0.10015095
49	0x3d4303d7	0.047611084
50	0xbe009d7b	-0.12560074
51	0xbd489c5d	-0.048977245
52	0x3d99122f	0.07474171
53	0xbdd5fe0b	-0.104488455
54	0xbe08010c	-0.1328165
55	0x3d26bb58	0.04070601
56	0x3d8e2d54	0.069422394
57	0xbdacd31a	-0.08438702
58	0x3c980ae5	0.018559882
59	0xbd62dafd	-0.055384625
60	0x3d959edc	0.07305691
61	0xbcd3e366	-0.025865268
62	0x3cc2eb31	0.023793789
63	0x3db4939d	0.088172175
64	0xbd320050	-0.04345733
65	0x3d809a48	0.06279427
66	0xbe0f718a	-0.14008155
67	0xbe5794ff	-0.21052931
68	0xbdb43ab9	-0.08800263
69	0xbc8f54b2	-0.01749644
70	0x3d80999f	0.06279301
71	0xbd0d2054	-0.03445466
72	0xbce01072	-0.027351592
73	0x3d20e4cf	0.03928071
74	0xbdb9a4f6	-0.09064667
75	0x3ca53763	0.020168012
76	0xbd84e895	-0.06489674
77	0xbbd909d8	-0.006623488
78	0xbe86a6a1	-0.26299003
79	0xbd75d532	-0.060017772
80	0xbdd5a871	-0.10432518
81	0x3d1b59c6	0.03792741
82	0xbc8c7205	-0.017144212
83	0xbcb72151	-0.022354754
84	0xbd770851	-0.060310666
85	0xbc31e2a8	-0.010857262
86	0x3d7e0e3a	0.062025286
87	0xbda1ca76	-0.078999445
88	0xbe18aba2	-0.14909223
89	0x3dcc59be	0.099780545
90	0xbe1e9cbc	-0.15489477
91	0x3dd56607	0.10419851
92	0x3cfcaaac	0.030843101
93	0xbcaf1df5	-0.02137659
94	0x3c4a45ef	0.012345775
95	0xbec390d4	-0.38196433
96	0xbc8afa87	-0.016965164
97	0x3d2e926a	0.0426201
98	0x3d829cbc	0.06377551
99	0xbd61531e	-0.055010907
100	0x3e1c54eb	0.15266769
101	0x3ebc9bf2	0.36837727
102	0xbdedb4f9	-0.116067834
103	0xbd680aff	-0.05665111
104	0x3dd4c761	0.10389591
105	0xbdfdc68a	-0.12391384
106	0xbdb00bb1	-0.0859598
107	0x3e4d98ce	0.20077822
108	0xbd106999	-0.035256956
109	0x3e3ce013	0.18444853
110	0x3cc8d602	0.02451611
111	0x3c88ce4d	0.016699934
112	0xbd6998c7	-0.057030465
113	0xbe212906	-0.15738305
114	0x3c1b89e3	0.009493324
115	0xbec1eeae	-0.3787741
116	0x3cd90e80	0.026496172
117	0xbd860d48	-0.06545502
118	0xbe341965	-0.17587812
119	0xbd513360	-0.051074386
120	0x3e01ca2b	0.12674777
121	0xbc72e904	-0.014826063
122	0xbd961ed4	-0.07330099
123	0xbd8210a7	-0.063508324
124	0xbe35a25a	-0.17737713
125	0xbd1142d2	-0.035464115
126	0xbc7e2702	-0.01551223
127	0xbe00f5fe	-0.12593839
128	0x3d838632	0.0642208
129	0xbd42c6d2	-0.04755289
130	0xbd3bf9e4	-0.04589261
131	0x3ccab813	0.024745977
132	0xbcdb38dc	-0.026760511
133	0x3ce5412d	0.02798518
134	0xbd23d473	-0.03999753
135	0xbd7dc41f	-0.061954614
136	0x399595c3	0.00028531076
137	0x3d571bbc	0.052516684
138	0xbcd7c85c	-0.026340656
139	0xbd97312e	-0.07382427
140	0xba88ef95	-0.0010447378
141	0xbd1e0d2d	-0.038586784
142	0x3b9d8333	0.0048069
143	0xbc75e1ea	-0.015007475
144	0x3c3b46aa	0.011430422
145	0xbd0c1b71	-0.034205858
146	0x3c6bcfbf	0.014392792
147	0xbc9e79f3	-0.01934526
148	0xbcf2f100	-0.029655933
149	0xbc4c1e38	-0.012458377
150	0xbccba7f5	-0.024860362
151	0x3d3aa9af	0.04557198
152	0xbc76b8a2	-0.015058668
153	0x3da0dcab	0.07854589
154	0xbc0692f8	-0.008213751
155	0xbd318c02	-0.043346412
156	0xbc764c25	-0.015032803
157	0xbd9b6db9	-0.07589287
158	0xbd93d267	-0.072178654
159	0xbba6897a	-0.0050823065
160	0xbd1253ba	-0.03572438
161	0x3d89cdb0	0.06728685
162	0xbdb6c5d4	-0.089244515
163	0xbd0fddd4	-0.03512366
164	0xbc5c8efa	-0.013461823
165	0x3d4eeb09	0.050517116
166	0x3cf3bfc1	0.029754521
167	0xbdaefdd3	-0.08544507
168	0xbb1ed7f9	-0.0024237616
169	0xbcb1bbe0	-0.021696031
170	0xbd9e7918	-0.077379405
171	0x3c37d424	0.011220012
172	0xbc0fbf34	-0.008773614
173	0x3d62e941	0.05539823
174	0xbc7d18f7	-0.015447847
175	0xbcb93896	-0.02260999
176	0x3d3a2e8b	0.045454543
177	0x3d859bb5	0.065238394
178	0xbc78d7f3	-0.015188205
179	0xbcb23f4c	-0.021758698
180	0xbc96a609	-0.018389719
181	0x3d14fef5	0.03637596
182	0x3d7803be	0.060550444
183	0xbda658dc	-0.08122417
184	0x3cbf1fea	0.023330647
185	0xbc0b8e08	-0.00851775
186	0xbd1e6ea4	-0.038679734
187	0xbd80d70d	-0.06291018
188	0x3c5b21be	0.013374744
189	0xbc204a23	-0.009783301
190	0x3cbad421	0.02280623
191	0xbcb5557d	-0.02213549
192	0x3d6998de	0.05703055
193	0x3cecfd21	0.028929295
194	0x3d84619a	0.064639285
195	0xbdaebb14	-0.08531776
196	0x3d5ec861	0.054390315
197	0xbbbb9e5b	-0.0057256646
198	0xbca0585c	-0.019573383
199	0xbd76a0ad	-0.060211826
200	0xbd4919ad	-0.049096752
201	0xbc5810c5	-0.013187592
202	0xbd3e19db	-0.046411376
203	0xbcc506bd	-0.024051065
204	0x3ce65e9b	0.028121283
205	0xbda3473b	-0.079725705
206	0x3d89efa7	0.06735163
207	0xbc1c6671	-0.009545908
208	0xbce0c3ae	-0.027437057
209	0x3c36a232	0.011147069
210	0x3d85048d	0.064950086
211	0x3c452fe4	0.012035344
212	0xbd825f10	-0.06365788
213	0xbd63334c	-0.055468842
214	0x3d9853ca	0.074378565
215	0xbc759301	-0.014988662
216	0xbc7c4bec	-0.015398961
217	0x3d8bca34	0.068256766
218	0x3d6cb4e7	0.05778971
219	0xbc974751	-0.018466623
220	0xbd941b6d	-0.072317936
221	0xbc6c4957	-0.014421782
222	0xbd7800b3	-0.06054754
223	0x3d456756	0.048194252
224	0x3c81933c	0.015817277
225	0xbda4cb00	-0.08046532
226	0xbc30b212	-0.010784643
227	0x3d893cbf	0.067010395
228	0x3d4054d3	0.046955895
229	0xbd24ba1d	-0.040216554
230	0xbc448f7c	-0.0119971
231	0xbdaa8b21	-0.08327318
232	0x3c890d34	0.016729929
233	0xbd9b99d4	-0.075977
234	0xbdbb67e0	-0.09150672
235	0xbd68c48d	-0.05682807
236	0xbc88538b	-0.016641399
237	0x3d11f35c	0.035632476
238	0xbc4aeab7	-0.012385062
239	0x3c41eb3a	0.011835868
240	0xbd9477d7	-0.0724942
241	0xbd586b61	-0.05283678
242	0xbcf30701	-0.029666426
243	0xbb9ca253	-0.0047800927
244	0x3d8c9220	0.06863809
245	0xbd88e18a	-0.06683643
246	0x3d34573d	0.04402851
247	0xbd3b1bc2	-0.04568077
248	0x3ba82b4f	0.005132116
249	0xbd204e11	-0.03913695
250	0xbdbb2c7a	-0.091393426
251	0xbd35daec	-0.044398233
252	0x3d8fbebf	0.07018804
253	0xbd925468	-0.071450055
254	0xbd803126	-0.06259374
255	0xbd6bed85	-0.057599563

backbone_layer.3.bias f4 [128]
0	0x3a537eb2	0.00080678903
1	0x3cb1d3dc	0.021707468
2	0xbd8ce302	-0.06879236
3	0xbd8eaaad	-0.069661476
4	0xbd8a2297	-0.06744879
5	0x3d040b55	0.03223737
6	0x3d50e92f	0.05100363
7	0x3d574f86	0.052566074
8	0xbdaea561	-0.08527637
9	0xbd8a0095	-0.06738392
10	0x3daa326f	0.08310401
11	0x3d77fab4	0.060541824
12	0xbc160901	-0.00915742
13	0xbc6e441b	-0.014542605
14	0x3cc4ed01	0.024038794
15	0xbc0967c2	-0.008386554
16	0x3d165046	0.03669765
17	0x3d3e6900	0.046486855
18	0xbd0b3744	-0.033988252
19	0x3c60e0a8	0.013725437
20	0x3d3f6c59	0.046734188
21	0x3d6cf0d7	0.05784687
22	0x3d6f3505	0.058400173
23	0xbcc9235f	-0.024552999
24	0xbd8086e2	-0.06275727
25	0x3daea168	0.085268795
26	0xbd861b7b	-0.0654821
27	0x3da774fa	0.081766084
28	0x3dacf92a	0.08445962
29	0xba824b63	-0.000994068
30	0xbd1c6e42	-0.038191088
31	0x3cca3616	0.024683993
32	0x3ce84345	0.02835239
33	0x3d4650bb	0.048416834
34	0x3d90b32c	0.07065424
35	0xbd2415e1	-0.040059928
36	0x3c3a43a1	0.011368663
37	0xbcca6d72	-0.02471039
38	0x3bbcde2e	0.0057637906
39	0x3bb40864	0.0054941643
40	0x3cb0c60e	0.021578815
41	0xbce1f325	-0.02758176
42	0xbc0e6773	-0.008691656
43	0xbd479dc6	-0.04873445
44	0xbd948f2e	-0.07253872
45	0xbc928223	-0.01788432
46	0x3dad6a03	0.08467486
47	0x3c8ce7b7	0.017200334
48	0xbd9bbf81	-0.07604886
49	0x3d85fb95	0.06542126
50	0xbbbf967c	-0.0058467966
51	0x3cccfd42	0.025023106
52	0x3b0a371e	0.0021089981
53	0x3ca4d346	0.020120274
54	0xbd89cd1d	-0.067285754
55	0xbd24ea53	-0.04026253
56	0x3be6ca63	0.0070431693
57	0x3d6cb3e9	0.057788763
58	0x3d3a5595	0.045491774
59	0x3d92b7ce	0.07163964
60	0x3dc975a9	0.09836895
61	0xbd302608	-0.04300502
62	0x3db60300	0.08887291
63	0x3d053edf	0.03253066
64	0xbd1af5ae	-0.037831955
65	0x3d9a82cb	0.07544478
66	0x3ba86b15	0.0051397183
67	0xbb8be6ec	-0.0042694714
68	0x3d958abc	0.07301852
69	0x3d9fc823	0.07801845
70	0xb86a6dc7	-5.5892186e-05
71	0xbdc4cf69	-0.09609873
72	0xbda65716	-0.08122079
73	0x3d75402c	0.059875652
74	0xbdaeffcb	-0.085448824
75	0x3db697a2	0.089156404
76	0x3da633ab	0.08115324
77	0xbd861095	-0.065461315
78	0xbe042022	-0.12902883
79	0xbd2a9cec	-0.04165356
80	0x3d14ca6f	0.03632587
81	0xbd7c185c	-0.06154667
82	0x3d8264f6	0.06366913
83	0xbd5e6f8a	-0.05430559
84	0x3cce3a85	0.025174389
85	0x3cb4948e	0.022043493
86	0xbdb6ed95	-0.08932034
87	0xbce65e23	-0.02812106
88	0xbd493e58	-0.04913172
89	0xbd815078	-0.06314176
90	0xbd690707	-0.056891467
91	0x3d683b83	0.05669738
92	0x3c9005a1	0.01758081
93	0xbd1cd09b	-0.03828488
94	0xbc364689	-0.011125215
95	0xbc884de2	-0.0166387
96	0xbd95d6aa	-0.073163345
97	0x3d63be66	0.0556015
98	0xbd026889	-0.031837974
99	0x3ca47991	0.020077499
100	0x3d52274a	0.051307
101	0x3da31fd8	0.07965058
102	0x3d9d9fae	0.07696472
103	0xbd9a1a72	-0.07524575
104	0xbcfddc09	-0.03098871
105	0xbd96c262	-0.07361294
106	0x3c2124d7	0.009835443
107	0xbbab1e0e	-0.0052220887
108	0x3d45734f	0.04820567
109	0xbd37dd62	-0.04488886
110	0xbdaf023a	-0.085453466
111	0xbc384158	-0.011246048
112	0x3d857e75	0.065182604
113	0xbc78cac9	-0.0151850665
114	0xbd246b76	-0.040141545
115	0x3c4f9e63	0.01267204
116	0x3da33a61	0.07970119
117	0xbbc97db8	-0.00614902
118	0xbca2a5e3	-0.019854492
119	0x3daeb171	0.08529938
120	0x3d44c5fc	0.048040375
121	0x3d5c0c07	0.053722408
122	0x3d3b5cdb	0.04574285
123	0x3d75f230	0.06004542
124	0x3d499413	0.04921348
125	0x3d5c4f82	0.053786762
126	0xbd84332a	-0.06455071
127	0xbdb31bf3	-0.08745565

output_layer.0.weight f4 [3, 128]
0	0xbd484cff	-0.048901554
1	0xbceac358	-0.0286576
2	0x3cc9e0fa	0.02464341
3	0x3e9e4d36	0.30918282
4	0xbd7c1f53	-0.06155331
5	0xbdf145fc	-0.117809266
6	0xbe0aff33	-0.13573913
7	0xbd6d8a98	-0.0579935
8	0xbebc98b8	-0.36835265
9	0x3f8069e0	1.003231
10	0x3d94f6b7	0.072736196
11	0xbdf33d1e	-0.118768916
12	0x3d2d38cf	0.042290505
13	0x3d70ae9f	0.05876028
14	0xbe4308e0	-0.19046354
15	0xbdf84e11	-0.12124265
16	0xbd84a030	-0.06475866
17	0xbe4bd39f	-0.19904946
18	0x3dfe7129	0.12423927
19	0xbb5f0334	-0.0034029009
20	0xbe6ed1f5	-0.2332228
21	0x3dba264c	0.09089336
22	0xbdec773a	-0.11546178
23	0x3dcf076d	0.10108838
24	0x3d2cf67f	0.042227264
25	0xbd8e6da3	-0.06954505
26	0xbc3d7881	-0.011564375
27	0x3cc92b80	0.024556875
28	0xbdebbfa0	-0.11511159
29	0x3d36584f	0.04451781
30	0xbd8ca051	-0.068665154
31	0xbe80b42e	-0.25137466
32	0x3ed519a2	0.4162112
33	0x3d024a01	0.031808857
34	0xbd22634f	-0.03964549
35	0x3e05813c	0.1303758
36	0x3db0973c	0.08622596
37	0x3e021565	0.12703474
38	0xbd636181	-0.05551291
39	0x3d824e1e	0.06362556
40	0xba4c52f1	-0.00077943417
41	0x3e3ab8fd	0.1823463
42	0x3e012063	0.12610011
43	0xbec0ca23	-0.37654218
44	0xbbb7131a	-0.005586994
45	0xbe8d97e9	-0.2765496
46	0xbdcbcc76	-0.09951107
47	0xbda5d3f2	-0.08097066
48	0x3d6ecb7e	0.058299534
49	0xbe0a7674	-0.13521749
50	0xbc4823ae	-0.012215538
51	0xbd228596	-0.03967818
52	0x3df445d4	0.11927381
53	0x3e0993cd	0.13435288
54	0xba7caa97	-0.0009638457
55	0x3dee244c	0.11628017
56	0x3dcd0e66	0.10012512
57	0xbd135911	-0.035973612
58	0x3d3c3bb0	0.04595536
59	0xbe92e78b	-0.28692278
60	0x3dd7df18	0.10540599
61	0x3db57b30	0.08861387
62	0xbd949dd2	-0.07256664
63	0x3c0cb67e	0.008588431
64	0xbe7a4169	-0.24439014
65	0x3dc94d1e	0.09829162
66	0x3dbbf198	0.0917694
67	0x3cf0cd26	0.029394697
68	0xbe133c0f	-0.1437838
69	0x3a884645	0.0010396919
70	0x3d95dee4	0.07317904
71	0xbc7d5f1b	-0.015464569
72	0xbd98fae3	-0.07469728
73	0x3db8a75a	0.09016295
74	0xbd45422e	-0.048158817
75	0xbcdbd126	-0.026833128
76	0x3c33f5e6	0.01098392
77	0x3ec71db5	0.38889852
78	0xbe8474d5	-0.25870386
79	0xbe6ab23d	-0.22919555
80	0xbcaa5523	-0.02079255
81	0x3da7f9ff	0.0820198
82	0x3da232d6	0.079198524
83	0x3c41ca43	0.011828008
84	0xbd165baf	-0.03670853
85	0x3dfa163a	0.12211271
86	0x3be71016	0.007051478
87	0xbd060d33	-0.03272743
88	0x3c3c97ef	0.011510833
89	0x3d8b882c	0.06813082
90	0xbd879321	-0.066198595
91	0x3d3c43e1	0.045963172
92	0xbc9008ef	-0.017582385
93	0x3ed3d105	0.41370407
94	0x3d4f469b	0.050604444
95	0xbd8450e5	-0.06460742
96	0x3b6afdf9	0.0035856946
97	0xbe5f2a7f	-0.21793555
98	0x3de79c33	0.113090895
99	0x3de70ef8	0.11282152
100	0xbc8362a3	-0.016038245
101	0x3ad31554	0.0016104379
102	0xbcfa5313	-0.030557191
103	0xbe66a5b8	-0.22524154
104	0xbc98436a	-0.018586833
105	0x3d87eefc	0.066373795
106	0x3e45b95b	0.19308989
107	0xbd811715	-0.06303231
108	0x3d97dad7	0.07414787
109	0x3ca03f64	0.019561477
110	0x3e8b2ae6	0.27181166
111	0x3c04d2ba	0.008106882
112	0x3dd341e7	0.10315304
113	0xbe1e7754	-0.15475208
114	0x3c42e15a	0.011894548
115	0xbd7e279e	-0.0620495
116	0xbd743769	-0.059623156
117	0xbe0130a0	-0.12616205
118	0x3dfe7221	0.12424112
119	0x3dfce78c	0.123488516
120	0xbdfd35b6	-0.1236376
121	0xbe025f77	-0.1273173
122	0x3dce7f94	0.10082927
123	0x3d8f53d4	0.06998411
124	0x3dbe83fa	0.09302516
125	0x3de876c4	0.11350778
126	0x3ddd053b	0.10792013
127	0xbe8748f8	-0.26422858
128	0xbde8417d	-0.11340616
129	0xbd903132	-0.07040633
130	0x3df3d869	0.11906511
131	0x3e9948f7	0.2993848
132	0xbb121d26	-0.0022295206
133	0xbe2da6c3	-0.16958146
134	0xbd931eeb	-0.071836315
135	0xbe18ef1b	-0.14934961
136	0xbeb581b9	-0.35450533
137	0x3f46fb84	0.7772753
138	0x3cbf976f	0.023387639
139	0xbe0db345	-0.13837917
140	0x3dcb1bd2	0.09917416
141	0x3db506c6	0.088391826
142	0xbe41df26	-0.1893278
143	0xbe28a15e	-0.16467807
144	0x3e09d77e	0.1346111
145	0xbe5df3c9	-0.21675028
146	0x3cecf2ab	0.028924307
147	0xbcf2faeb	-0.029660663
148	0xbe448290	-0.1919043
149	0x3d895f05	0.06707577
150	0xbe0c7ad3	-0.13718729
151	0x3cc8e1cc	0.02452173
152	0x3d8f415e	0.0699489
153	0xbd5294c6	-0.051411413
154	0x3dc10a9d	0.094258524
155	0x3de4f35b	0.11179229
156	0xbdea63d5	-0.11444823
157	0x3dfc6f8f	0.123259656
158	0xbd8efb0d	-0.06981478
159	0xbc7c5eb2	-0.0154034365
160	0xbf0b9b8d	-0.54534227
161	0x3d23297d	0.03983449
162	0xbd90ecb9	-0.07076401
163	0x3d0b1dce	0.03396397
164	0x3ddf67c8	0.109084666
165	0xbf58e964	-0.84731126
166	0x3e774b57	0.24149834
167	0x3d5d7b07	0.054072406
168	0x3e01a822	0.12661794
169	0xbd1334c5	-0.035938997
170	0x3d3be742	0.04587484
171	0xbdac28be	-0.084062085
172	0xbbf22999	-0.0073902127
173	0xbe8aa899	-0.27081755
174	0xbe3cbf22	-0.18432286
175	0xbda1067d	-0.07862566
176	0x3d7d4335	0.06183167
177	0xbe8797fc	-0.26483142
178	0x3dd3e481	0.10346318
179	0xbd90ab5c	-0.07063934
180	0xbcb1dbcf	-0.021711258
181	0x3d35b795	0.04436453
182	0xbd996fa7	-0.07491999
183	0x3e01cdc7	0.12676154
184	0xbd6a77c1	-0.057243112
185	0x3daa31c8	0.08310276
186	0x3d58ce34	0.052931026
187	0xbda1183e	-0.07865952
188	0x3dbebc87	0.093133025
189	0x3de9826c	0.11401829
190	0xbdb03cf8	-0.08605379
191	0x3d72d0d5	0.05928119
192	0x3d907f9f	0.07055592
193	0xbc4022f3	-0.011727083
194	0xbb7d3c10	-0.0038640536
195	0x3e6a0730	0.22854304
196	0xbd5e5d20	-0.05428803
197	0xbdc2d388	-0.09513003
198	0x3e04bc72	0.12962511
199	0xbd15dcd3	-0.036587548
200	0xbd758708	-0.05994323
201	0x3d48538c	0.0489078
202	0xbc354f88	-0.011066325
203	0x3da20ad7	0.07912224
204	0x3dd73eef	0.105100505
205	0x3d051a78	0.032495946
206	0xbeb05d7e	-0.3444633
207	0xbced3baa	-0.028959114
208	0xbceffb54	-0.029294647
209	0x3df22a54	0.1182448
210	0xbd40cc1b	-0.04706965
211	0xbd0e61e1	-0.034761313
212	0x3c20ada5	0.009807025
213	0xbd81226d	-0.06305394
214	0x3d9b8137	0.07593005
215	0x3dd0919d	0.101840235
216	0xbd950af5	-0.072774805
217	0x3d9425a9	0.072337456
218	0xbc95fb90	-0.01830843
219	0x3d0f81e6	0.03503599
220	0xbde32c34	-0.110924155
221	0x3e08d8f8	0.13364017
222	0x3d8e471f	0.06947159
223	0xbe3e7fcd	-0.1860344
224	0x3da76617	0.08173769
225	0xbe1476af	-0.14498399
226	0x3da6f18b	0.081515394
227	0x3d0f9a6e	0.035059385
228	0xbdb91a1f	-0.09038185
229	0x3dd8e28c	0.105900854
230	0xbdcb93b2	-0.0994028
231	0xbeb6b27d	-0.3568305
232	0x3d6a36e7	0.057181265
233	0xbcbd1789	-0.023082511
234	0x3d43c365	0.047793765
235	0xbdd03017	-0.101654224
236	0x3c6de161	0.014519067
237	0x3d8a923b	0.067661725
238	0x3e7f2183	0.24915127
239	0x3df9d392	0.12198557
240	0xbcefd6d9	-0.029277252
241	0xbd429eec	-0.04751484
242	0xbd9e7e76	-0.07738964
243	0xbbff997d	-0.0078002797
244	0xbda30dd5	-0.079616226
245	0xbdc7f20a	-0.09762962
246	0x3ba79d29	0.0051151705
247	0xb9fc3a4f	-0.0004810863
248	0xbdfdc060	-0.12390208
249	0xbe154d0d	-0.14580174
250	0x3d96167b	0.073285066
251	0xbba009aa	-0.0048839645
252	0x3d98cccb	0.07460936
253	0x3c2a5645	0.010396545
254	0x3e02d38a	0.12776008
255	0xbeb1b3a4	-0.34707367

output_layer.0.bias f4 [3]
0	0xbd4fdf86	-0.050750278
1	0x3bf7e4e3	0.007565127
2	0x3b8919f0	0.004184
